…
dio_py_launcher_nodebug.py /home/ivana/repos/Vje-ba 41915 34806ad9-833a-4524-8cd6-18ca4aa74f14 RedirectOutput,RedirectOutput /home/ivana/repos/Vje-ba/Vježba.py
Using TensorFlow backend.
(103250, 12)
Sve su jpg: True
57
Prepoznajemo 57 umjetnika
Found 13680 images belonging to 57 classes.
Found 1710 images belonging to 57 classes.
Found 1710 images belonging to 57 classes.

_________________________________________________________________
Layer (type)                 Output Shape              Param #
=================================================================
conv2d_1 (Conv2D)            (None, 112, 112, 32)      896
_________________________________________________________________
activation_1 (Activation)    (None, 112, 112, 32)      0
_________________________________________________________________
batch_normalization_1 (Batch (None, 112, 112, 32)      128
_________________________________________________________________
max_pooling2d_1 (MaxPooling2 (None, 56, 56, 32)        0
_________________________________________________________________
conv2d_2 (Conv2D)            (None, 28, 28, 32)        9248
_________________________________________________________________
activation_2 (Activation)    (None, 28, 28, 32)        0
_________________________________________________________________
batch_normalization_2 (Batch (None, 28, 28, 32)        128
_________________________________________________________________
max_pooling2d_2 (MaxPooling2 (None, 14, 14, 32)        0
_________________________________________________________________
flatten_1 (Flatten)          (None, 6272)              0
_________________________________________________________________
dense_1 (Dense)              (None, 228)               1430244
_________________________________________________________________
activation_3 (Activation)    (None, 228)               0
_________________________________________________________________
dense_2 (Dense)              (None, 57)                13053
=================================================================
Total params: 1,453,697
Trainable params: 1,453,569
Non-trainable params: 128
_________________________________________________________________
Epoch 1/20
456/456 [==============================] - 1807s 4s/step - loss: 3.7363 - acc: 0.1091 - val_loss: 3.3923 - val_acc: 0.1515
Epoch 2/20
456/456 [==============================] - 1648s 4s/step - loss: 3.2389 - acc: 0.1881 - val_loss: 3.1822 - val_acc: 0.2076
…
